model/model.pth (torch, 17216 bytes, 4 tensors)

linear1.weight f4 [256, 11]
000000 ce 4a 83 be 29 a0 1d be 80 2f eb 3c 2b 0c 24 be
       -0.2564301 -0.15393128 0.028709173 -0.16020267
000010 e4 20 84 3e 17 93 2f be 20 52 92 3d 44 8b 97 3d
       0.25806344 -0.17145954 0.0714457 0.0739961
000020 ac 5c 3f bd df e1 8f be cf 20 02 bd 30 7a 43 3e
       -0.04671924 -0.28102013 -0.03176957 0.1908958
000030 ec 6b 52 3e c0 b9 d5 3b 61 1a ab 3b eb cd 79 bd
       0.20548981 0.0065223873 0.0052216505 -0.060987394
000040 f9 a7 6b 3d ff 28 6c be 2b 55 ee 3c 17 ae c8 3d
       0.057533238 -0.23062514 0.029093346 0.0979883
000050 09 08 24 be a2 32 71 3e 4a de 3b 3e 39 49 68 3e
       -0.1601869 0.23554471 0.18346515 0.22684182
000060 63 ea 3b be d3 b9 7f bd db d8 eb 3d d7 3c 3b 3e
       -0.1835113 -0.062433075 0.11515971 0.18284927
000070 3f 2b c4 3e a0 0e 5c 3e e8 44 66 3e c0 84 b6 3e
       0.38314244 0.21489954 0.22487223 0.35648155
000080 80 f6 54 3e ce 2f 8d be cd 86 81 3e 7a 76 a4 3e
       0.20797157 -0.27575535 0.25298157 0.3212164
000090 54 de a9 bd 08 13 5f 3e b4 f2 33 be f2 ec ee bd
       -0.08294359 0.21784604 -0.17573053 -0.116662875
0000a0 b2 d4 18 be bc c8 13 3d 05 0b 0a 3d 5b 9a 62 bd
       -0.14924887 0.036080107 0.033701915 -0.055322986
0000b0 1f bb b5 3e 25 59 e4 bd d6 43 2f be 1a 7b ad 3d
       0.35494325 -0.111498155 -0.17115721 0.084707454
0000c0 45 d1 27 3e 7c 7b 33 be 55 71 34 be 1f 93 c1 3e
       0.16388424 -0.17527574 -0.17621358 0.37807557
0000d0 32 a0 52 3d bf 03 ce 3e 5a 9a 09 3c bd 2f b3 be
       0.051422305 0.40237233 0.008398617 -0.3499736
0000e0 68 78 52 3d a1 1b 29 bd ea 16 e4 3d 5e 85 17 3e
       0.05138436 -0.041286115 0.11137183 0.1479697
0000f0 3d 39 73 be d7 bb 89 be 79 a9 9f be c7 93 9a 3d
       -0.23752303 -0.26901123 -0.31183985 0.075477175
000100 e5 3b 93 3d 18 df aa 3b da 5d 14 be a3 59 91 bd
       0.07189158 0.005214583 -0.14488927 -0.07097175
000110 84 84 74 bd 19 75 c8 bc eb 49 f4 3d 9c de 0a bd
       -0.05969669 -0.024469899 0.11928161 -0.033903703
000120 c3 bc a0 bd 2b 55 2e 3e 5b b1 84 bb 9c d8 6f 3e
       -0.078485034 0.17024677 -0.0040494627 0.23422474
000130 cd 2b cf 3d 27 0a 52 3d f0 55 d6 bd ec 0f 03 3e
       0.10115776 0.051279213 -0.1046561 0.12799042
000140 7a 35 7f 3e 07 10 33 3e 99 f8 25 bd da 1b af bc
       0.24922743 0.17486583 -0.040520284 -0.021375585
000150 41 3f 6e bd 3c f2 87 3e d2 44 c1 3d e9 63 6d 3e
       -0.058165792 0.26551998 0.094369546 0.23182644
000160 68 bc 49 bd 28 d1 4d 3e 96 95 ee bd 05 2b 6d 3e
       -0.049251944 0.20099318 -0.11649625 0.23160942
000170 5a 86 6a be 7a 87 8f bd 86 39 63 3e e1 92 70 bd
       -0.22902814 -0.07008262 0.22189912 -0.058733825
000180 e3 f6 86 be f6 22 84 be 3e 15 41 3e bc a1 48 3e
       -0.26360235 -0.25807923 0.1885576 0.19592947
000190 b5 c9 c7 bd 14 73 78 3e fd 02 23 3e 0b 94 3c 3e
       -0.097552694 0.24262649 0.15919109 0.18415849
0001a0 f1 15 54 bc 46 a4 65 3e dd df 40 3d 1e 95 05 be
       -0.012944684 0.22425947 0.047088493 -0.13045165
0001b0 b8 3d ef bc b8 a0 12 3d b4 77 a0 3e 62 5d 34 be
       -0.029204234 0.035797805 0.31341326 -0.17613748
0001c0 86 ff bc bd bc a5 90 be 14 4d 0e 3e 42 02 9b be
       -0.09228425 -0.28251445 0.1389659 -0.3027516
0001d0 ab 0f 91 3d ad 59 8e 3e 8c a5 8d 3e f2 ac bc 3e
       0.070830666 0.27802792 0.27665365 0.36850697
0001e0 56 bc 34 bd 15 88 9a be ee 24 f7 bd f6 31 04 3e
       -0.044124924 -0.30181947 -0.12067591 0.12909684
0001f0 45 a1 57 3c 13 2d 09 3d 5b e8 f5 bd 97 bd 52 be
       0.013161008 0.03349025 -0.12007209 -0.20580135
000200 4e 5d 42 3e 57 d1 82 3e c2 e1 a9 3c 36 e6 f8 3d
       0.18980905 0.2555034 0.020737533 0.12153284
000210 e7 2f 15 be 6f b5 5b bb 10 ea 87 be 3a a4 37 3e
       -0.14569055 -0.003352489 -0.26545763 0.17933741
000220 0e cb 5e 3e b4 bd 5e 3e d9 ac 0c 3e 66 5c 2a bd
       0.21757147 0.21752053 0.13737811 -0.041592024
000230 f5 ca 6f 3e da 91 8e be 14 40 30 3e 18 9b 09 be
       0.23417266 -0.2784565 0.17211944 -0.1343807
000240 bb e9 8c bd 4f ed a8 3d a7 7a e1 bd 02 44 62 3d
       -0.06880518 0.08248388 -0.11009722 0.05524064
000250 35 f3 9c 3e 3a 3c 55 be 39 0a 5d 3e 7a ae 72 3e
       0.30654302 -0.20823756 0.21585931 0.2369937
000260 51 f2 92 3e 02 1c 3f 3e 65 78 70 3e bb 0e 4c be
       0.28700498 0.18663028 0.23483427 -0.19927494
000270 a6 28 8f bd 37 8b 85 be d3 49 73 be 28 5d 3e 3d
       -0.06990175 -0.26082775 -0.2375863 0.04647556
000280 7c ac 28 3d b1 da 79 be 0e 5c 4f 3e 37 0d b7 bd
       0.04118012 -0.2439983 0.2024996 -0.089380674
000290 6f 70 3b be ab aa 3b be 47 2a 2c 3a 70 d4 cc 3c
       -0.18304609 -0.18326823 0.0006567579 0.025003642
0002a0 0e de 14 3e 64 f9 31 3e 85 b3 17 3c f3 75 dc 3c
       0.14537832 0.17380291 0.009259109 0.026911711
0002b0 8b e0 02 3e a7 eb 88 3d 7f 5c e2 3c 8c 25 6d bc
       0.12780969 0.06685572 0.027631996 -0.014474284
0002c0 40 1e c5 3d 29 38 ce 3d 8e 82 43 be 7b 6f 29 be
       0.0962491 0.100693054 -0.19092771 -0.16546433
0002d0 5b 82 60 3e 08 2d 4a be 2a eb 5a 3d 86 35 2e 3e
       0.21924727 -0.1974374 0.053446926 0.17012605
0002e0 1f 8e 96 3d cd 6f 59 bd 4d cd ea bc 43 32 54 3e
       0.07351326 -0.053085137 -0.028662348 0.20722298
0002f0 76 b3 90 bd 6c 98 32 3e 8b 1f 8a 3e 88 8c 89 3e
       -0.070654795 0.17440957 0.2697719 0.2686503
000300 fd ce 88 3e f3 9f 8b 3e 1e f9 46 bc ef bd 91 3e
       0.2672042 0.2727047 -0.012144355 0.2846522
000310 18 ee 36 3e be cb 34 3e bb e4 2e be 08 ca e4 bb
       0.17864263 0.17655846 -0.17079441 -0.006982092
000320 8f 65 42 3e 8a 10 89 3e ed 2d f9 bd 40 4f 66 be
       0.18984054 0.2677043 -0.12166963 -0.22491169
000330 a3 24 48 3d 18 ec 27 3e e6 f7 49 3e b6 ae 5d be
       0.048863064 0.16398656 0.19723472 -0.21648678
000340 56 4d 28 3e a1 36 06 be 65 61 4a 3e 85 41 aa 3e
       0.16435751 -0.13106777 0.19763716 0.33253112
000350 a4 ad 5c 3e db a0 08 3d 41 f4 a7 bd 3b b7 3d bc
       0.21550614 0.03335653 -0.082008846 -0.01157933
000360 16 d3 92 3e 2c f8 94 3e 5d d6 19 be 96 68 7a 3e
       0.2867667 0.2909559 -0.1502318 0.24453959
000370 3d 95 28 be b8 3d 9b 3e 7c e6 29 be 4c 9f 73 be
       -0.1646318 0.30320525 -0.16591829 -0.23791236
000380 27 ad 8c 3e be 19 bc bd fe 03 72 be bd 62 8a 3e
       0.27475855 -0.091845974 -0.23634335 0.27028456
000390 4f 35 0d bd 13 20 23 3e 52 2d 27 be 39 e4 46 3d
       -0.034474667 0.15930204 -0.16325882 0.048557494
0003a0 32 b7 fd 3d a9 53 03 be 80 88 d8 3e 8f ad 44 3e
       0.12388457 -0.12824883 0.4229164 0.19206832
0003b0 14 7d e8 bd f0 01 77 be 15 b3 a5 bd 36 e2 f0 bd
       -0.11351982 -0.24121833 -0.08090798 -0.11761896
0003c0 89 69 77 bc 37 99 33 be f1 12 e2 3d ae da 4e be
       -0.015100845 -0.17538916 0.11038769 -0.20200607
0003d0 cd f8 9e 3d 79 f4 00 be f7 e1 a1 3e 3b d4 16 bd
       0.07762299 -0.12593259 0.3161771 -0.036823492
0003e0 36 de e6 3d f4 6c fb bc 3f f8 91 3e c2 ae bd 3e
       0.11272852 -0.030691601 0.2850971 0.37047392
0003f0 02 d0 c6 3d b8 2b 12 bd 1b 24 8c be d0 d9 2b bd
       0.09707643 -0.035686225 -0.27371296 -0.04195577

linear1.bias f4 [256]
000000 7e ce 8b be 86 b0 80 bd 65 fa 44 3e db 6d 84 3d
       -0.2730598 -0.06283669 0.19236143 0.06466266
000010 d3 c7 16 bc 0d ba 88 3d 6e a3 9c 3e e8 46 b7 bd
       -0.009202915 0.06676111 0.30593437 -0.08949071
000020 5b 28 81 bd 2f 56 a5 3e d7 6c cd 3d f3 4c 93 3e
       -0.06306525 0.32292315 0.10030525 0.28769645
000030 9b c9 b5 3d 35 29 9b bd 8a 34 9c bd 68 4f 71 3e
       0.08876344 -0.07576219 -0.076272085 0.23565447
000040 ec bc a2 bd 59 e7 a4 3d bd 61 28 3e 90 a5 5b 3d
       -0.0794619 0.080519386 0.16443534 0.05362469
000050 46 b1 bb bd 3c dd 04 3e bc 2d 38 3e 5f 98 85 be
       -0.091646716 0.12975019 0.17986196 -0.26092812
000060 61 b6 75 bd 11 c4 73 be 0a 55 7b be 18 c8 e6 bb
       -0.059988383 -0.23805262 -0.24544159 -0.007042896
000070 f4 18 26 be 4f 9f 5d 3d d7 68 55 3e 40 98 14 be
       -0.16220456 0.054107007 0.20840774 -0.14511204
000080 67 59 de 3d 70 50 d7 bc 18 75 1d bd a5 96 8e be
       0.10856896 -0.026283473 -0.038441747 -0.27849308
000090 e0 d1 07 3e f1 19 39 3c d3 c8 87 3e d9 69 88 3e
       0.13263655 0.011297689 0.26520404 0.26643255
0000a0 91 39 18 be 59 ca 9c 3d 4a 1a 5c be 8f 74 d4 3e
       -0.1486571 0.07655782 -0.21494403 0.41495177
0000b0 5c 8d aa 3e a0 56 46 bb 14 0a 38 3d 2f de 65 3d
       0.33310974 -0.0030264035 0.044931486 0.056120094
0000c0 75 fe a3 be e2 0c a6 3d 10 2c 82 be 43 10 7f bd
       -0.32030073 0.08107926 -0.25424242 -0.062271368
0000d0 a1 d8 eb 3d 3f 39 d1 3e a3 f0 4a 3e 9d a1 d2 3d
       0.11515928 0.40863988 0.19818358 0.102847315
0000e0 a3 a1 29 3c d2 8f f6 3d 05 f1 05 be 4f 8b 00 be
       0.010353479 0.1203915 -0.13080223 -0.12553142
0000f0 ac 2c 71 3e b1 29 93 bd 2b 68 7e be 9c d2 c5 bd
       0.23552197 -0.071856864 -0.24844424 -0.09659311
000100 49 4b a2 3e 3d 0f 3e be 89 78 c9 3d 8d a6 7c 3e
       0.31698063 -0.185605 0.098374434 0.24672909
000110 fa 00 6a 3e a2 01 75 3e ec 35 3c 3d ff 0a b3 bd
       0.22851935 0.23926404 0.04594986 -0.08742332
000120 f5 03 94 3d a9 9b 7b 3e 2a 58 1b 3e 63 58 11 be
       0.07227317 0.24571098 0.1517035 -0.14193873
000130 fc 97 fc bd 64 30 10 bc fb fb c0 3b 3e 3c 65 3e
       -0.12333676 -0.0088006 0.0058894134 0.22386262
000140 7d ee 2a 3c 05 39 ac 3e 68 ed 27 bd 52 89 d1 3d
       0.010432837 0.33637252 -0.040997893 0.1023127
000150 d3 d1 2c 3e b3 bb 9b 3e e3 d2 85 3e 1c db b2 bd
       0.16876917 0.3041664 0.26137456 -0.08733198
000160 40 e5 ae 3e 8c c2 96 3d 85 8b 18 3e cc 90 17 3e
       0.3415928 0.073613256 0.14896972 0.1480133
000170 ae d4 39 be 44 2e 82 be c2 be 65 3e 11 c8 ad 3e
       -0.18147537 -0.25425923 0.2243605 0.339417
000180 e2 d7 60 3e a5 25 9e 3c 10 70 83 be e2 df 2a be
       0.21957353 0.01930506 -0.25671434 -0.16686967
000190 8a 90 19 bd 92 6a 77 3e 12 89 3e 3e 5d da 2a 3d
       -0.03749136 0.24161747 0.18606976 0.041712154
0001a0 17 0d ad 3e 03 1e 05 3d 74 0b 42 be f3 6a 28 be
       0.3379905 0.032499325 -0.18949682 -0.16447048
0001b0 0a 83 90 be 39 01 c3 3e 2e ac 92 3e 51 10 88 3e
       -0.28224975 0.3808687 0.28646988 0.26574948
0001c0 05 03 e2 3d c7 fb 98 3e 2e eb e1 bc 53 69 82 be
       0.11035732 0.2987959 -0.027577963 -0.2547098
0001d0 a5 e4 84 3e 0c e9 dd bd 10 45 74 3e 3a f9 95 bd
       0.25955692 -0.10835466 0.2385447 -0.07322927
0001e0 87 02 59 3e 0a 44 a2 bd 41 ea a1 3d a8 f5 79 3e
       0.2119237 -0.07923134 0.079060085 0.24410117
0001f0 73 00 b5 3e d1 66 14 3e 19 aa 3b bc a4 17 dc 3e
       0.35351905 0.14492346 -0.011454129 0.42986786
000200 4a 90 4b be ca 9b 46 be 5a 76 34 bd c5 e7 21 be
       -0.1987926 -0.19395366 -0.04405818 -0.1581107
000210 4c 7f 67 be a4 6e a5 3c 9d 5c 0c be 24 0a df bd
       -0.22607154 0.02019436 -0.13707204 -0.10890606
000220 2e 40 b2 bd 2d 33 53 be ea fc 25 3d 35 cc 3a 3e
       -0.087036476 -0.20624991 0.0405244 0.18241961
000230 7b 32 a1 3e d8 a6 6a be 04 2c 36 3d 42 76 7a be
       0.31483826 -0.22915208 0.04447557 -0.24459174
000240 55 03 4e 3e 5e 14 c2 3d 51 f1 13 3e f1 b0 5a 3e
       0.20118459 0.09476541 0.14447524 0.2135656
000250 2c cf b3 bd 46 45 74 3e 8d 72 40 3b cb b5 6a 3e
       -0.08779749 0.2385455 0.0029365153 0.22920911
000260 43 03 3b 3a 53 79 bd 3e fd b4 98 3d 8d a0 c8 3e
       0.000713397 0.37006626 0.07456396 0.3918499
000270 7b ad 2d be ea d5 c7 3e 26 32 b8 3e 7d fe d3 bd
       -0.16960709 0.3903039 0.3597576 -0.10351274
000280 c5 6f b3 ba 83 8e f4 bd ab 5f 39 be 6d 9a eb bd
       -0.0013689926 -0.119412445 -0.181029 -0.11504064
000290 5e a4 a8 be d5 ca 7a 3d 06 4a 18 be 11 7f 85 3e
       -0.32937902 0.061228592 -0.14871988 0.26073506
0002a0 10 38 42 be 47 08 7e 3e ae e2 c8 3e dc 99 b4 3e
       -0.18966699 0.24807845 0.39235443 0.35273635
0002b0 86 a3 a5 3e 4f 2f be 3d 84 08 c0 3e 37 89 22 be
       0.3235132 0.09286367 0.37506497 -0.15872656
0002c0 fa f4 b8 bc 77 25 11 3e f6 7f de 3d 68 9b 03 3e
       -0.022577751 0.14174448 0.1086425 0.12852252
0002d0 df d6 a3 3e 72 f5 00 3e 0e 53 dd bd 0d 1e 1f be
       0.3199987 0.1259363 -0.10806857 -0.15538807
0002e0 d4 46 58 be 78 ab 0c be 39 a7 98 bc 62 49 92 3e
       -0.21120769 -0.13737285 -0.018634425 0.28571612
0002f0 e9 45 2e 3e b6 07 9b 3e d1 82 96 3d 48 fd 8a 3d
       0.17018856 0.3027932 0.0734917 0.06786591
000300 d0 6d 99 3e 23 13 55 bd fe c5 75 be 50 14 ed 3d
       0.29966593 -0.052020203 -0.2400131 0.1157614
000310 12 2b 08 bd 7a 17 43 bd a9 6b 90 3e ac 1f a3 3e
       -0.0332442 -0.04762981 0.28207138 0.318601
000320 05 2c b3 3e 0a a6 39 be 0f be 0f 3e 5b f3 43 3d
       0.34994522 -0.18129745 0.14037345 0.047839504
000330 66 6a 60 be 0a 47 d5 bd 0f b7 81 be 88 f7 2e 3e
       -0.21915588 -0.1041394 -0.25334975 0.17086613
000340 dc 56 be 3b ca f4 04 be 1b 1e ec bd 65 53 3b bc
       0.0058086943 -0.12984005 -0.1152918 -0.011433457
000350 1e cf 9e 3d 7f d3 34 be 2c 65 0d be 90 09 fb b7
       0.07754348 -0.17658804 -0.13808125 -2.9925985e-05
000360 59 60 99 3e 3a 31 d3 3b 39 71 2d 3e a9 dc d6 3e
       0.2995632 0.0064450772 0.16937722 0.41965225
000370 20 b1 9c 3e 83 5c d3 3d d9 4c 58 bd 4b c6 5f 3e
       0.30603886 0.103203796 -0.052807663 0.21852987
000380 b2 5d 74 3b 51 c2 92 3e f4 49 76 3d 0f 59 8b 3d
       0.0037287292 0.28663877 0.06012912 0.06804096
000390 b0 04 14 3e 0e 7d 0b be 08 42 25 be e8 dc ce bd
       0.14454913 -0.13621923 -0.1613847 -0.10100728
0003a0 5f 8c d8 bc 63 ba 13 3e e5 6c da 3e 77 8f ce bc
       -0.026434122 0.1442657 0.42661205 -0.025214894
0003b0 bb fa ac 3e 34 74 03 bd a9 eb ba 3e 5e 16 90 3e
       0.33785042 -0.03209324 0.3650792 0.28142065
0003c0 f9 51 08 3b fa ad 08 3e 16 a3 ae 3e 96 2f 20 3d
       0.0020800813 0.13347617 0.341088 0.03910788
0003d0 09 ad 87 3e 2e 10 e7 3e 90 a4 81 bd 1f c4 39 be
       0.26499203 0.45129532 -0.06330216 -0.1814122
0003e0 08 49 76 be 95 be bf 3e 43 12 8d 3e 81 ef 72 bc
       -0.24051297 0.3745009 0.27552995 -0.01482761
0003f0 40 3a 7f 3d 13 02 87 be ad cf 14 be 5b 98 9a be
       0.06231141 -0.2636877 -0.14532347 -0.30194363

linear2.weight f4 [3, 256]
000000 bf eb 34 3b 06 2d dd 3c c1 c3 11 3e ae 06 07 bd
       0.0027606336 0.026999008 0.1423483 -0.032965355
000010 61 d6 f7 3d d5 9c 92 3c 52 f9 21 3d 65 1b 1a 3d
       0.121014364 0.017897049 0.03954441 0.03762378
000020 f2 d2 9d 3c 1f e0 2b 3e 26 24 d6 3d 02 f5 62 3d
       0.019265626 0.16784714 0.104561135 0.05540944
000030 28 1a 82 3d ef 3c 8f bd 79 fa eb 3d 08 f4 e5 3c
       0.06352645 -0.06994044 0.11522383 0.028070465
000040 17 aa ad bb c3 ec fd 3d ff 5d bf 3d e8 7d 78 3d
       -0.0052998173 0.12398674 0.093441 0.06066695
000050 76 0c 0d 3d 73 d5 cc 3d 86 bd 15 3e eb dc e4 bb
       0.03443571 0.1000165 0.14623079 -0.0069843433
000060 5d 54 eb 3d 97 5d 8e 3d f6 78 e8 3c 11 98 f1 3c
       0.114907004 0.069514446 0.028377991 0.029491456
000070 27 c4 82 bd 2e a8 14 3e 0a 9d 81 3d 7a b7 d4 3b
       -0.06385069 0.1451728 0.06328781 0.0064915987
000080 11 d2 b5 3d 7b 50 f2 3d 88 5d 2b bc 6c 96 2e bd
       0.088779576 0.11831757 -0.010459311 -0.042623922
000090 77 ff 55 bc e6 dc a0 3c a4 7f 06 3e 62 c0 a2 3d
       -0.013061396 0.019636583 0.13134629 0.0794685
0000a0 72 7d b0 3c eb 69 08 3e 92 f5 7b 3c b9 bf c1 3d
       0.021544192 0.13321654 0.015378373 0.09460396
0000b0 7e fb 13 3e 68 61 4b 3d a1 39 ef 3d 00 55 76 3d
       0.14451405 0.04965344 0.11680914 0.060139656
0000c0 0a b1 b2 3c 7e 79 33 3e a8 1f 37 bd e7 15 d2 3d
       0.021812934 0.17526814 -0.044707924 0.10258084
0000d0 51 ac b3 3c c1 78 1c 3e 43 6d 1c 3d ce 4f 06 3e
       0.021932753 0.15280439 0.038190138 0.1311638
0000e0 da 44 bb 3c 21 d2 3b 3d 40 bf e3 bb bd 2c a5 bd
       0.02285998 0.04585469 -0.006950289 -0.08065174
0000f0 e7 66 24 3c e4 db 16 3e be 07 49 3d a5 0b d6 3d
       0.010034299 0.14732319 0.04907965 0.1045144
000100 b3 fb 13 3e 3a 7c 50 3e e2 b7 b2 3c 30 e8 d4 3d
       0.14451484 0.20359889 0.021816198 0.10395849
000110 f2 8f b5 3d 51 dc 6d 3d 69 92 88 3c d9 e4 e4 3c
       0.08865346 0.05807144 0.016671376 0.027941154
000120 4a 82 21 3e 3b b0 cc bc a4 fa 3c 3e 48 98 37 3d
       0.15772358 -0.024986377 0.18454987 0.04482296
000130 c1 f5 ca 3c ec cc 1b bd f6 56 90 3d f3 5e e7 3d
       0.024775388 -0.038037226 0.070478365 0.11297407
000140 fc 8c b2 bc 7b 23 15 3d 98 06 82 3d 0d 11 e7 3d
       -0.021795742 0.03641079 0.06348914 0.11282549
000150 05 c8 d2 3d fe 20 06 3e d4 d9 bd b8 4e 9e e1 3d
       0.10292057 0.13098523 -9.052796e-05 0.11016522
000160 ce 23 02 3d ee 56 16 3e b1 36 05 3e e5 22 20 3d
       0.031772427 0.14681599 0.13009144 0.039095778
000170 99 66 65 3d a6 7e c3 bc b1 aa 17 3d 97 22 e5 3d
       0.056006048 -0.023864102 0.03702802 0.11188238
000180 9c 28 9e bd 31 f8 1f 3e 32 1d 8d bc 96 26 06 bb
       -0.077225894 0.15622021 -0.017225835 -0.0020469776
000190 14 52 20 bd ba 48 cd 3d c0 51 81 3e cf 5d 13 3e
       -0.039140776 0.10023637 0.25257683 0.14391254
0001a0 63 44 08 3e 4e a2 f1 3d 9d ec 38 3c 73 a1 2f 3d
       0.13307337 0.11798535 0.011286882 0.04287858
0001b0 f0 6e 2d bd 1d 2f 32 3e 9a 3d fd 3d dc 44 00 3e
       -0.042342126 0.17400785 0.12365265 0.12526268
0001c0 db 04 75 3c 86 bd ce 3d b3 5d 1c 3e 64 cf 0e 3c
       0.014954771 0.100947425 0.15270118 0.008716438
0001d0 9a 1f 99 3d a0 8f 37 3e 36 a6 d0 3c d7 4e b0 bc
       0.07476731 0.17925882 0.02546988 -0.021521969
0001e0 ac 53 c0 3d 65 81 16 3e b9 40 ad 3d a1 73 07 3c
       0.09390959 0.14697798 0.084596105 0.008267314
0001f0 b1 7b 10 3e 30 63 ee 3d df 8d f8 3c 58 ff fa 3d
       0.14109685 0.11640012 0.030341087 0.12255734
000200 90 84 52 3b 48 cf d6 3d f1 a4 24 bd c1 f6 01 3c
       0.003212247 0.104887545 -0.040196363 0.007932366
000210 0d 90 1e 3c 95 b9 b5 3d 5c d3 5b bd 03 d8 bc 3b
       0.009677899 0.088732876 -0.053668365 0.0057630553
000220 8a e3 ef 3c ae d0 ce bb d6 10 5d bd b5 ee 19 3e
       0.029283304 -0.0063114977 -0.053971134 0.15032466
000230 e3 d4 95 3d ce de 0e 3c a9 48 33 3c b5 d2 21 3c
       0.073159955 0.008720113 0.0109426165 0.009876897
000240 e1 3f 6e 3c 5b bd 98 3d ea b6 12 3e 69 ea 09 3d
       0.014541597 0.07457992 0.14327589 0.033670817
000250 91 ca 97 3c 43 df d3 3c 15 7c dc 3d 90 94 02 3e
       0.018529208 0.025863295 0.10765854 0.12751985
000260 a6 39 77 3d 9b 42 aa 3d 8e 31 37 3e 58 fc 20 3e
       0.060357712 0.08313485 0.17889997 0.15721262
000270 a0 89 4f bd d3 9f 9a 3d 3c 13 28 3e 34 ac 96 3d
       -0.05066836 0.07550015 0.16413587 0.07357064
000280 68 92 d7 bb 7e 21 c7 3d c6 38 4a 3d 55 93 02 3e
       -0.0065787323 0.09723185 0.04937055 0.12751515
000290 88 3d 55 3d 26 00 92 bd 92 6f dc 3c 54 5f 17 3e
       0.052060634 -0.071289346 0.02690867 0.14782459
0002a0 70 7a c8 3b bb f9 0a 3e d8 68 ef 3d c8 90 00 3e
       0.0061181113 0.13571827 0.11689919 0.1255523
0002b0 35 cb fb 3d c7 c6 cd 3d e5 b4 f3 3d dd 26 05 3e
       0.12294618 0.100476794 0.11899737 0.13003106
0002c0 70 e3 1c bd b1 a9 1e 3c 68 09 bf 3d 9b d7 1c 3e
       -0.03830284 0.009684012 0.09327966 0.15316622
0002d0 f2 0f ca 3b 1c ac a6 3c 71 b0 fb 3d 9f 40 a6 3d
       0.0061664516 0.02034574 0.12289513 0.08117794
0002e0 fe 64 97 3d d8 97 2c 3c a0 b8 04 3e 01 d9 98 3d
       0.073923096 0.010534249 0.12961054 0.07463265
0002f0 e0 82 ab 3c 1b 6a d6 3d 5b 73 ad 3c 66 da 46 3d
       0.02093643 0.10469457 0.02117317 0.048548125
000300 55 10 13 3e 33 e1 e9 3d f8 96 1a bd b2 a2 cd 3d
       0.14361699 0.114199065 -0.03774163 0.10040797
000310 04 ec 50 bc 59 f3 d5 bc a5 59 11 bd 30 a1 11 3e
       -0.012751583 -0.026117014 -0.035485882 0.14221644
000320 d2 89 e8 3c 80 88 ab bc 4b fb 19 3e 43 be dc bb
       0.02838603 -0.020939112 0.15037267 -0.006736548
000330 f0 ad ad 3b 5f 5e 02 3e 80 a3 1b 3c 3c 0c f7 3d
       0.005300276 0.12731312 0.009499431 0.120628804
000340 d7 cf cd 3d 6b 4b 4e bd 11 72 c9 3d 66 c5 15 3e
       0.10049408 -0.050364893 0.098362096 0.14626083
000350 9c 0c e1 bb 76 1a 40 bc d4 b8 ac 3d bf b2 8c 3c
       -0.006867958 -0.011725059 0.08433691 0.017175077
000360 86 a0 1f 3d 55 fb 98 bc 79 04 1a 3b 7e 77 1d 3e
       0.038971446 -0.018674532 0.00235012 0.15377614
000370 81 be b1 3d 67 bf 40 3e 32 0e f4 3d 3e 1f 17 bb
       0.08678914 0.18823014 0.1191677 -0.0023059393
000380 b0 77 f5 bc f0 31 aa 3c e9 82 a3 bb 2a 9d 01 be
       -0.029964298 0.020775765 -0.004989971 -0.1265761
000390 74 06 50 3d 85 40 ef bd 5b a1 76 3d b3 e0 c3 3d
       0.050787404 -0.11682228 0.060212474 0.09564342
0003a0 03 44 11 3d cb 8d 4c bc 44 f5 19 3e d0 85 f4 3d
       0.03546525 -0.012484978 0.15034968 0.11939585
0003b0 53 68 3c 3e fe 78 c0 bd fc 75 f6 3d d4 05 15 3e
       0.18399172 -0.093980774 0.120342225 0.14553005
0003c0 52 df 88 bd 14 23 0c 3e ad c4 12 3d cd 92 bc 3d
       -0.0668322 0.13685256 0.035832096 0.092076875
0003d0 2d e3 1f 3d 0f 7c 19 3e 8b 69 2d bd 0e db 0a 3d
       0.03903501 0.14988731 -0.04233698 0.033900313
0003e0 ad d8 2c bc f1 df b8 3d 10 a2 b7 3d 42 c4 21 3d
       -0.010549706 0.090270884 0.08966458 0.039493807
0003f0 23 83 0d 3e a6 b4 b8 3d e0 23 ea 3c 9b 55 9a 3d
       0.13819556 0.09018831 0.02858156 0.07535859

linear2.bias f4 [3]
000000 f0 c8 bb 3d 69 b2 5a 3d c5 c2 cc 3d
       0.09169185 0.0533928 0.09998087
