model/model.pth (torch, 17216 bytes, 4 tensors)

linear1.weight f4 [256, 11]
0	0x3da61bec	0.081107944
1	0xbd3be930	-0.04587668
2	0x3de2739b	0.11057206
3	0x3e30765b	0.17232649
4	0x3df52489	0.11969859
5	0x3e64cf33	0.22344665
6	0xbd32b02c	-0.04362504
7	0x3e85fac4	0.2616788
8	0x3e811287	0.25209448
9	0x3e517257	0.20453773
10	0x3e99701e	0.2996835
11	0xbe53181e	-0.20614669
12	0xbe34052e	-0.17580101
13	0xbe84ad7d	-0.2591361
14	0x3d88d9a4	0.06682137
15	0x3c64ece0	0.013972491
16	0xbd71d3f8	-0.05904004
17	0x3e24f658	0.16109598
18	0xbdfa912e	-0.12234722
19	0xbc9178b7	-0.017757757
20	0xbe14fcf1	-0.14549614
21	0xbd354443	-0.044254553
22	0x3e93e7c6	0.28887767
23	0x3e48cafa	0.1960868
24	0x3d291670	0.041281164
25	0x3d51f02e	0.051254444
26	0xbe8b735c	-0.2723645
27	0xbe8e7345	-0.2782232
28	0xbe61354c	-0.21992987
29	0xbd126280	-0.03573847
30	0x3e493d7c	0.1965236
31	0xbd855aae	-0.065114364
32	0xbda9718a	-0.08273609
33	0x3e14baf2	0.14524439
34	0x3e8f0652	0.2793451
35	0xbdde33b0	-0.10849702
36	0xbe98d0a8	-0.29846692
37	0x3de1ba56	0.11021869
38	0xbe8a62c1	-0.27028468
39	0xbe624cae	-0.22099563
40	0xbe98b439	-0.29825
41	0x3e5c40ab	0.21509044
42	0xbcd78bf0	-0.026311845
43	0xbd80e3c9	-0.062934466
44	0xbe92827b	-0.28615174
45	0xbdbc85ca	-0.09205206
46	0x3e889548	0.26676393
47	0xbe6d320b	-0.23163621
48	0x3e202133	0.15637664
49	0x3e16e686	0.14736375
50	0xbe6844d4	-0.22682506
51	0x3e62fe02	0.22167209
52	0x3e830e05	0.25596634
53	0xbd10055e	-0.03516137
54	0xbdf51215	-0.119663395
55	0x3e2a22c2	0.16614822
56	0xbe40bc42	-0.18821815
57	0x3dee8de5	0.11648158
58	0xbdcad165	-0.0990322
59	0x3d345125	0.044022698
60	0xbd387b6d	-0.045039583
61	0xbce178c0	-0.027523398
62	0x3e8a780b	0.2704471
63	0x3e09d261	0.1345916
64	0xbd87eddd	-0.06637166
65	0x3e234a95	0.1594642
66	0xbd07a680	-0.03311777
67	0xbe3a65a4	-0.18202835
68	0xbe806422	-0.25076395
69	0x3e22635e	0.15858218
70	0x3e5a54ce	0.21321413
71	0xbe6cfb77	-0.23142801
72	0xbe2784d5	-0.16359265
73	0xbd43bde3	-0.047788512
74	0xbd814d51	-0.06313575
75	0xbe12dc08	-0.14341748
76	0x3d8a45f9	0.067516275
77	0x3da4d92c	0.08049235
78	0x3e38e66e	0.18056652
79	0x3c838a40	0.016057134
80	0x3d0f89d0	0.035043538
81	0x3d319545	0.043355245
82	0x3e28478d	0.16433544
83	0x3d5e802e	0.05432146
84	0x3de07a32	0.10960807
85	0xbd82711a	-0.06369229
86	0x3e92694e	0.28595966
87	0xbd430fa0	-0.047622323
88	0xbe1acea9	-0.15117897
89	0x3e4b9188	0.19879735
90	0x3e787105	0.24261864
91	0x3e4ddf1a	0.20104638
92	0x3ddc4b86	0.107565925
93	0x3e1a41bc	0.15064138
94	0x3e47bf2c	0.1950652
95	0xbe966bb6	-0.29379052
96	0x3e19028f	0.14942382
97	0xbdcc83ca	-0.09986074
98	0xbcc602f4	-0.02417133
99	0x3de65c78	0.11248106
100	0xbba25e40	-0.004955083
101	0x3c98b636	0.018641572
102	0x3e652c72	0.22380236
103	0x3e181b94	0.1485427
104	0xbe63db34	-0.22251588
105	0xbe8791aa	-0.2647832
106	0x3e6831ba	0.22675219
107	0xbd5ee5e8	-0.054418474
108	0x3d995787	0.07487398
109	0xbe18f591	-0.14937426
110	0x3dff29ec	0.12459168
111	0xbe97a8a4	-0.2962085
112	0xbe4c5985	-0.19956024
113	0xbddaeda6	-0.10689859
114	0xbe54c9bc	-0.2078008
115	0x3e26b9e2	0.16281846
116	0xbe0c93cd	-0.13728257
117	0xbe82d65c	-0.25554168
118	0x3e0459ec	0.12924927
119	0xbdd40cc8	-0.10354
120	0xbe1ea1f3	-0.15491466
121	0xbe2b109c	-0.16705555
122	0xbd856a82	-0.065144554
123	0x3e4e2910	0.20132852
124	0xbd9e013f	-0.077150814
125	0x3d04709b	0.03233395
126	0x3e4c554b	0.19954412
127	0xbe638bdc	-0.22221321
128	0x3da643af	0.08118378
129	0xbde53042	-0.11190845
130	0x3e86a2a7	0.2629597
131	0xbdad639e	-0.08466266
132	0xbcb25600	-0.021769524
133	0xbcb9fae0	-0.022702634
134	0xbe926082	-0.28589255
135	0xbdb42b14	-0.08797279
136	0xbe60571e	-0.21908233
137	0xbdf14638	-0.11780971
138	0x3e446b4a	0.19181553
139	0xbe0bf1a7	-0.13666402
140	0x3e0eeffc	0.13958734
141	0x3e3460f0	0.17615104
142	0xbdc3c6ee	-0.09559427
143	0xbc35bba0	-0.011092097
144	0x3e6c6a74	0.23087484
145	0x3d6b4c60	0.057445884
146	0xbd920fe7	-0.071319394
147	0xbe52deed	-0.20592852
148	0xbd5bdf7a	-0.05367992
149	0xbe7b9a46	-0.2457057
150	0x3cdb5640	0.026774526
151	0x3dfccf04	0.123441726
152	0x3e351b2f	0.17686151
153	0xbe0e93cf	-0.13923572
154	0xbde1fb52	-0.11034264
155	0x3e3de5ec	0.1854474
156	0xbc5f797b	-0.013639803
157	0xbe4f9ee4	-0.20275456
158	0x3e7f1233	0.24909286
159	0x3e7da73a	0.24770823
160	0x3d35d638	0.044393748
161	0x3ce88e42	0.028388146
162	0xbba32bf4	-0.004979605
163	0xbd6f63b3	-0.05844469
164	0x3d91b16d	0.071139194
165	0x3e3bc9c8	0.18338692
166	0xbcb632c0	-0.022240996
167	0xbe2cadc9	-0.16863169
168	0x3e3292d6	0.17438826
169	0xbdf2fe16	-0.11864869
170	0xbe016f10	-0.12640023
171	0xbe94c24b	-0.29054484
172	0x3d123614	0.035696104
173	0x3d913568	0.070902646
174	0x3defb55d	0.11704514
175	0xbe7a99d2	-0.2447274
176	0xbe80e484	-0.25174344
177	0xbe5569fd	-0.20841213
178	0x3e1b63ee	0.15174839
179	0xbde64846	-0.11244254
180	0xbdcc746e	-0.09983145
181	0x3d07b778	0.033133954
182	0x3e87d569	0.26530007
183	0xbdd39edd	-0.10333035
184	0xbdd5075c	-0.10401794
185	0x3c3e9361	0.011631818
186	0xbe4edcea	-0.2020146
187	0x3d0943c0	0.033511877
188	0xbd9e0cc4	-0.077172786
189	0x3cf76160	0.0301978
190	0xbe60b66f	-0.21944593
191	0xbd14538c	-0.03621249
192	0x3e1ac045	0.15112408
193	0x3c708c9e	0.014681963
194	0xbdbee132	-0.09320296
195	0x3dd3e7d8	0.10346955
196	0x3e24adf2	0.1608198
197	0xbe7d94b9	-0.24763764
198	0x3e1dfadc	0.15427727
199	0x3df1b5d0	0.11802256
200	0x3e21173a	0.15731516
201	0x3e2cd519	0.16878165
202	0xbdfdd438	-0.12393993
203	0x3dd1668a	0.10224636
204	0xbd6dcecd	-0.05805855
205	0x3d8a257f	0.06745433
206	0xbc583422	-0.013196023
207	0x3e9ccef1	0.30626634
208	0x3e4204fb	0.18947212
209	0x3e029b4c	0.12754554
210	0x3e890918	0.2676475
211	0x3e25d177	0.16193186
212	0x3e5f2745	0.21792324
213	0x3d8f79d7	0.07005661
214	0xbe881e7e	-0.26585764
215	0xbd51d9c8	-0.051233083
216	0xbe96235b	-0.2932385
217	0x3e378368	0.17921221
218	0x3e54b83b	0.20773403
219	0xbe0651e6	-0.1311718
220	0x3c530280	0.012879014
221	0x3e3223ba	0.17396441
222	0x3e940cbe	0.28915972
223	0xbe4a183d	-0.19735809
224	0xbe946d1c	-0.28989494
225	0x3d89cd47	0.06728607
226	0xbb458cb5	-0.0030143682
227	0x3e14e4f2	0.1454046
228	0x3c97e5a0	0.01854211
229	0x3d86f88b	0.065903746
230	0x3ccb1a30	0.02479276
231	0x3bfdee80	0.0077493787
232	0x3e0f8bb6	0.14018139
233	0xbe02fcdc	-0.1279177
234	0x3e920256	0.28517407
235	0xbd3617d5	-0.04445632
236	0xbe84d251	-0.2594171
237	0x3d8a268c	0.067456335
238	0x3e07468e	0.13210508
239	0xbe3ca27a	-0.18421355
240	0x3e0c8ae3	0.13724856
241	0xbcd734ae	-0.026270237
242	0x3e88e410	0.26736498
243	0xbe7e3666	-0.24825439
244	0xbc7d2fee	-0.015453322
245	0xbe45c5fc	-0.19313806
246	0x3dd992ca	0.10623701
247	0x3de950c3	0.11392357
248	0xbdde9468	-0.1086815
249	0xbe66cfdb	-0.22540228
250	0xbdf29c24	-0.11846188
251	0xbe7fb608	-0.24971783
252	0xbe4dc891	-0.20096041
253	0x3d3f7c08	0.046749145
254	0x3d46bcb8	0.04851982
255	0xbe17abe1	-0.1481166

linear1.bias f4 [256]
0	0xbd1b26bc	-0.037878737
1	0xbd2f08eb	-0.042733114
2	0xbe0e8db4	-0.13921243
3	0xbdc875a8	-0.09788066
4	0x3db509f0	0.08839786
5	0x3ce31ab5	0.027722696
6	0x3e6af4e8	0.22944987
7	0x3c1219a6	0.008917248
8	0xbd3cdbda	-0.046108104
9	0x3e4a216f	0.19739316
10	0xbe72c7dd	-0.23709054
11	0xbde04631	-0.10950888
12	0xbe752d19	-0.23942985
13	0x3de7a113	0.11310019
14	0xbe177993	-0.1479247
15	0xbdb8e46b	-0.09027942
16	0xbdf10743	-0.11768963
17	0xbcf59261	-0.029977025
18	0xbe801221	-0.2501383
19	0xbdb4c3ab	-0.08826383
20	0xbe40d96c	-0.1883294
21	0x3e0c34bd	0.13691993
22	0x3e8e1fc9	0.27758625
23	0xbe8f28d4	-0.27960837
24	0xbe8325ca	-0.25614768
25	0x3da5486c	0.08070454
26	0xbd83ca1a	-0.06435032
27	0x3e3ad45f	0.18245076
28	0xbd060bde	-0.03272616
29	0xbd9fa201	-0.07794572
30	0x3e1d0374	0.15333349
31	0x3e0f6eb6	0.14007077
32	0xbe252cbe	-0.16130349
33	0x3e4d18c9	0.20028986
34	0x3e75cd57	0.24004112
35	0x3e2129c7	0.15738593
36	0xbe29435c	-0.16529602
37	0xbdd7492c	-0.10512003
38	0x3e771d1c	0.24132198
39	0x3c4af136	0.012386611
40	0xbe607aee	-0.21921894
41	0xbdf15177	-0.11783116
42	0xbe10b056	-0.14129767
43	0xbe97fca0	-0.29684925
44	0xbe90173e	-0.28142732
45	0x3e404e30	0.18779826
46	0xbe4c4973	-0.19949894
47	0xbe99e1d9	-0.3005512
48	0x3e8d93bb	0.27651772
49	0x3da29a72	0.07939614
50	0xbe93c23e	-0.28859133
51	0xbc367183	-0.011135462
52	0x3dcebbe0	0.10094428
53	0xbe332cfe	-0.17497632
54	0xbd0bd260	-0.034136176
55	0x3ca01515	0.019541303
56	0x3dd5ca53	0.10438981
57	0x3e70ee02	0.23528293
58	0x3dce2ef9	0.10067553
59	0x3e98a072	0.2980991
60	0xbd5552b7	-0.052080836
61	0x3e8bd147	0.27308103
62	0x3a14e058	0.0005679182
63	0xbe99ebd5	-0.30062738
64	0xbddafeff	-0.10693168
65	0xbe47a7f3	-0.19497661
66	0xbc2546ad	-0.010087651
67	0x3ca3d790	0.02000025
68	0xbd57c048	-0.052673608
69	0xbdceb84b	-0.10093745
70	0x3d993606	0.07481007
71	0xbd91b742	-0.07115032
72	0xbd777054	-0.06040986
73	0x3d642f07	0.05570891
74	0x3e2036f4	0.15645963
75	0x3dc9d364	0.09854773
76	0xbd092a50	-0.033487618
77	0xbc20a609	-0.009805211
78	0xbe91f5fb	-0.2850798
79	0xbe2ad26c	-0.16681832
80	0x3db52742	0.088453785
81	0x3e87fb17	0.26558754
82	0x3e0a492f	0.1350448
83	0x3e0588a0	0.130404
84	0xbd8dc98f	-0.0692321
85	0x3e41ae46	0.18914136
86	0x3d9814eb	0.07425865
87	0xbe788e28	-0.24272978
88	0xbd3a67bf	-0.045509096
89	0xbe0716dc	-0.13192314
90	0x3c8d7609	0.017268198
91	0xbe8fdf46	-0.28100032
92	0x3e288211	0.16455866
93	0xbdd30826	-0.103042886
94	0xbdc2926f	-0.09500586
95	0xbd6a9ad4	-0.05727656
96	0xbe5b67c9	-0.2142631
97	0xbe23f974	-0.16013128
98	0x3e8dbfb9	0.27685335
99	0xbd8e7f72	-0.06957902
100	0x3e35f6ad	0.1776988
101	0xbe898bb4	-0.26864398
102	0x3e208d67	0.1567894
103	0xbe3eb9e2	-0.18625596
104	0xbe6b8b68	-0.23002398
105	0xbe0699ad	-0.1314456
106	0xbe8dbd15	-0.2768332
107	0xbe6fc8b4	-0.23416406
108	0xbd881c32	-0.06646003
109	0x3e5416af	0.20711778
110	0x3e1d4f0b	0.15362184
111	0xbddb2f03	-0.10702326
112	0xbdd1dbba	-0.10246988
113	0x3e64ceb6	0.22344479
114	0xbe3044b1	-0.17213704
115	0xbd90284a	-0.070389345
116	0xbe8341f5	-0.2563626
117	0x3d946153	0.072451256
118	0xbdcf79c7	-0.10130649
119	0x3e96b3d0	0.2943406
120	0xbe0facaa	-0.1403071
121	0x3dded5b0	0.108806014
122	0xbe0586a8	-0.13039649
123	0xbdeba344	-0.1150575
124	0xbe65a3fc	-0.22425836
125	0x3dbe6990	0.09297478
126	0xbe668114	-0.22510177
127	0x3d20efda	0.03929124
128	0xbdc2235d	-0.09479401
129	0x3c44c384	0.012009505
130	0xbe365061	-0.178041
131	0xbdb9c950	-0.090716004
132	0xbd3cc665	-0.04608764
133	0x3e80c7ad	0.2515234
134	0x3e6440fc	0.22290415
135	0x3e20ce1f	0.15703629
136	0x3ca20854	0.019779362
137	0xbc91e952	-0.017811451
138	0xbd2bb68a	-0.04192213
139	0xbe8a338d	-0.26992455
140	0x3e51b00e	0.20477316
141	0x3e28bc30	0.16478038
142	0xbe197fba	-0.1499013
143	0xbe91087d	-0.2832679
144	0xbe85a407	-0.26101705
145	0x3e3cf39b	0.18452303
146	0x3d06ddbb	0.032926302
147	0x3db20a8a	0.086934164
148	0xbe4406ad	-0.19143172
149	0xbe86386d	-0.26214924
150	0xbe8e486e	-0.27789634
151	0xbda32e80	-0.079678535
152	0x3e3551b0	0.17706943
153	0xbd07319d	-0.0330063
154	0x3da44e40	0.080227375
155	0x3e1eca48	0.15506852
156	0xbe0de39d	-0.13856359
157	0xbced468c	-0.028964303
158	0xbe91ddf9	-0.28489664
159	0xbd92cb46	-0.071676776
160	0x3e142ea6	0.1447092
161	0xbe8219c1	-0.25410274
162	0x3db65267	0.08902436
163	0xbe3eca2a	-0.18631807
164	0xbc840820	-0.016117156
165	0xbe85d748	-0.2614081
166	0xbe1c1752	-0.15243271
167	0x3e45826f	0.19288038
168	0xbe3924c3	-0.1808043
169	0x3d3099ae	0.04311531
170	0x3d29b78d	0.041434813
171	0xbc30cf3d	-0.010791597
172	0xbdceff18	-0.10107249
173	0xbe54af72	-0.20770052
174	0x3e926f34	0.28600466
175	0xbd0b8090	-0.034058154
176	0xbdb64e92	-0.08901705
177	0xbe85e2fc	-0.26149738
178	0xbd84c831	-0.06483496
179	0x3e932225	0.28736988
180	0xbdf666e1	-0.12031341
181	0x3e3a21e0	0.18176985
182	0x3e6ed244	0.23322397
183	0x3e8848db	0.26618084
184	0x3d572055	0.05252107
185	0x3d8d0e1e	0.06887458
186	0xbe6e03ca	-0.23243633
187	0xbe8c06f8	-0.27349067
188	0xbda9732c	-0.082739204
189	0xbd4f3c52	-0.050594635
190	0x3de70248	0.11279732
191	0x3e2d70bf	0.1693754
192	0x3e3b3074	0.18280202
193	0xbe3340d1	-0.17505194
194	0x3dd45510	0.10367787
195	0xbe4da6b7	-0.20083128
196	0xbe8ec571	-0.2788501
197	0xbe8d416d	-0.27588978
198	0x3e6ac100	0.22925186
199	0x3b8d6fee	0.0043163216
200	0xbd109618	-0.03529939
201	0x3e8aef9e	0.27135938
202	0xbdd737fe	-0.105087265
203	0xbe6977b3	-0.22799568
204	0xbdf424fa	-0.11921115
205	0xbd8ff28b	-0.07028683
206	0xbe922be2	-0.28549105
207	0xbe870782	-0.26372916
208	0xbe60d3b1	-0.21955754
209	0x3e98ed22	0.29868418
210	0xbe8ff026	-0.28112906
211	0x3e37ebb0	0.17961001
212	0xbe8ba852	-0.27276856
213	0x3de583eb	0.11206802
214	0xbcacabe5	-0.02107806
215	0xbe3de278	-0.18543422
216	0xbd911e04	-0.07085803
217	0xbe0f1ef6	-0.13976654
218	0x3db25b62	0.08708836
219	0x3e183f3c	0.14867872
220	0x3d71210c	0.058869407
221	0x3e71d698	0.23617017
222	0xbd796ca4	-0.060894623
223	0x39459ec3	0.00018846527
224	0xbdd6b78d	-0.10484228
225	0xbcac731c	-0.021050982
226	0xbe3f3a74	-0.18674642
227	0xbe895594	-0.26823103
228	0xbe10d9cc	-0.14145583
229	0xbe8df899	-0.27728727
230	0xbcde77fb	-0.02715682
231	0x3e17abf0	0.14811683
232	0xbe2676aa	-0.16256204
233	0xbe8948d3	-0.26813373
234	0xbe6ca70e	-0.23110601
235	0x3e81e9f7	0.25373814
236	0xbe8fd2d1	-0.28090528
237	0x3dde73e4	0.10861948
238	0xbe3101e5	-0.17285879
239	0xbd45773f	-0.048209425
240	0x3dc923e9	0.098213024
241	0x3e5b041c	0.21388286
242	0xbda69144	-0.08133176
243	0xbe3d425e	-0.18482348
244	0x3b45c5ce	0.0030177715
245	0xbd87ba38	-0.06627315
246	0x3e5e3305	0.2169915
247	0x3e296912	0.16543987
248	0x3e6be096	0.23034891
249	0x3dffb1f2	0.12485112
250	0xbd772ba5	-0.060344357
251	0x3e1f355b	0.15547697
252	0x3d92ae94	0.071622044
253	0xbdf5eadb	-0.12007686
254	0x3cf60f9e	0.030036744
255	0x3df73dad	0.120723106

linear2.weight f4 [3, 256]
0	0x3d6c693a	0.05771754
1	0x3c63db70	0.013907298
2	0xbcb98d67	-0.022650434
3	0x3d4923b8	0.04910633
4	0xbd131e82	-0.035917766
5	0x3d54fcff	0.05199909
6	0x3caba47e	0.02095246
7	0xbcb1cd92	-0.021704469
8	0x3b955bc9	0.004558061
9	0xbd231b8f	-0.039821204
10	0x3aa88f00	0.001286
11	0x3d543f8b	0.05181841
12	0x3cee85dc	0.029116563
13	0xbd525cea	-0.05135814
14	0x3d4ac8b7	0.049507823
15	0xbd163b78	-0.036677808
16	0x3d126be2	0.035747416
17	0x3d449959	0.047997806
18	0xbd376793	-0.04477651
19	0xbcfc68ac	-0.03081163
20	0x3d36ff07	0.044676807
21	0x3d6ab160	0.057298064
22	0x3d6769a4	0.05649723
23	0x3d788bae	0.060680084
24	0x3cf8d7a4	0.030376263
25	0xbc12ac69	-0.008952239
26	0xbc8b8957	-0.017033262
27	0x3cb855d3	0.022501862
28	0xbcb722cf	-0.022355465
29	0xbd404399	-0.046939466
30	0x3d29596b	0.04134504
31	0x3ccab056	0.024742287
32	0xbc3b04bd	-0.011414704
33	0x3c819c0c	0.01582148
34	0x3c1886b7	0.009309462
35	0xbc767313	-0.015042084
36	0x3d610c76	0.054943524
37	0x3d0134c1	0.03154445
38	0x3c1695c7	0.009190983
39	0x3d2cacc7	0.04215696
40	0x3d02e040	0.031952143
41	0x3cf126ac	0.029437385
42	0x3cfaf804	0.030635841
43	0x3d34ef36	0.04417344
44	0x3ce7282c	0.028217398
45	0x3d8bb918	0.06822413
46	0xbd382517	-0.044957247
47	0x3d35e544	0.044408098
48	0x3d857469	0.06516344
49	0xbccc3278	-0.02492641
50	0xbbdd04f0	-0.0067449734
51	0x3d794e18	0.06086549
52	0xbd18ddb9	-0.037320826
53	0xbd2a22c2	-0.041537054
54	0xbcf4e5f2	-0.029894803
55	0x3d020cae	0.031750374
56	0xbd176107	-0.036957767
57	0xbcc7f617	-0.024409337
58	0xbc7c1d79	-0.015387886
59	0x3d5dd822	0.0541612
60	0xbd0cd216	-0.03438004
61	0x3cf905b0	0.03039822
62	0xbba92e3c	-0.0051629823
63	0x3d77761e	0.06041538
64	0xbcb5beb6	-0.022185665
65	0x3d264b8c	0.04059939
66	0x3b776467	0.0037749053
67	0xbcd712ae	-0.026254024
68	0x3d17907d	0.03700303
69	0x3bba889e	0.0056925556
70	0xbc5b41e0	-0.013382405
71	0xbcbf667f	-0.023364304
72	0xbd0fd7fc	-0.035118088
73	0x3cb5d820	0.022197783
74	0x3cff9471	0.031198712
75	0xbd03ccf4	-0.03217788
76	0xbd5d20f6	-0.053986512
77	0xbd3fb76c	-0.046805784
78	0xbd256124	-0.040375844
79	0x3c7955c1	0.015218199
80	0xb969a17c	-0.00022280769
81	0xbbf7b9f9	-0.0075600115
82	0x3d69d955	0.05709203
83	0xbc5dff97	-0.013549707
84	0x3d363c93	0.04449136
85	0xbd35abbe	-0.04435324
86	0x3d852101	0.065004356
87	0x3d6e8f44	0.058242097
88	0x3ce06baa	0.027395088
89	0x3cb4ee6c	0.022086345
90	0x3c068f4d	0.0082128765
91	0xbb83e9d0	-0.0040256754
92	0x3d0be597	0.0341545
93	0x3d3efaaa	0.04662577
94	0xbd529079	-0.05140731
95	0x3c789dac	0.015174311
96	0xbbcf5640	-0.0063274205
97	0xbcd81826	-0.026378702
98	0xbcbd1c33	-0.023084735
99	0x3d4fb480	0.050709248
100	0xbd10fd1d	-0.035397638
101	0xbd24095c	-0.04004799
102	0x3d80e18d	0.062930204
103	0xbd0fdadc	-0.03512083
104	0xbc7f6f73	-0.015590536
105	0xbbfa0ac7	-0.0076306793
106	0xbd1b9c3a	-0.037990786
107	0x3cce3eec	0.025176488
108	0x3c77d950	0.015127495
109	0xbd41a6a4	-0.04727806
110	0xbd2e6adc	-0.042582378
111	0x3c95bb9d	0.018277938
112	0x3d4bfa64	0.049799338
113	0x3d13937c	0.036029324
114	0x3d0dcad4	0.03461726
115	0x3d0900dc	0.033448085
116	0xbbc684d7	-0.006058316
117	0x3d2937c4	0.041312948
118	0x3d85fee3	0.065427564
119	0x3d19fe68	0.037596136
120	0x3cec347c	0.02883362
121	0xbd2aac4a	-0.041668214
122	0xbc2c4b34	-0.010515977
123	0xbd2d6d2c	-0.042340443
124	0x3c44c4d8	0.012009822
125	0x3c61d7c5	0.013784354
126	0x3c874b28	0.01651533
127	0xbc39b5ab	-0.011334817
128	0x3d49cdb3	0.049268436
129	0x3d801380	0.06253719
130	0x3c2ff1dc	0.010738816
131	0x3c288553	0.010285693
132	0xbd40bed7	-0.047057
133	0xbd463d23	-0.04839815
134	0xbd10a86e	-0.035316877
135	0xbcb70b4c	-0.022344254
136	0xbcbbc97a	-0.02292322
137	0xbadd0f73	-0.0016865566
138	0x3cae4978	0.021275267
139	0x3d7c2071	0.061554376
140	0xbd022b52	-0.031779595
141	0x3d2da1dc	0.04239069
142	0x3cf0923f	0.02936661
143	0xbd32fb21	-0.043696526
144	0x3d0f559b	0.03499375
145	0x3ceabba3	0.028653925
146	0xbd41a985	-0.047280807
147	0xbc1c510c	-0.009540807
148	0xbce37a10	-0.027768165
149	0x3d1bf416	0.038074575
150	0xbcd50e5a	-0.02600782
151	0xbcc58848	-0.024112836
152	0x3d6fc4ef	0.05853742
153	0xba6844fa	-0.0008860376
154	0xbcd5e4e0	-0.026110113
155	0x3bceff43	0.0063170507
156	0xbc292433	-0.010323572
157	0xbd3db0c5	-0.04631116
158	0x3cc00ce0	0.02344364
159	0xbd4198da	-0.04726491
160	0x3d310866	0.0432209
161	0x3c93443c	0.017976873
162	0xbd1e67fb	-0.038673382
163	0x3d554972	0.052071996
164	0x3d440f90	0.047866404
165	0x3ba9c320	0.0051807314
166	0xbd4538f4	-0.048150018
167	0x3d3595fd	0.044332493
168	0xbd63959e	-0.055562608
169	0x3d13adcd	0.03605442
170	0x3bf43c89	0.0074535054
171	0x3c3da543	0.011575046
172	0x3d821f37	0.0635361
173	0x3cc31ecd	0.023818398
174	0xbd5e21ee	-0.054231577
175	0x3d3587f4	0.044319108
176	0xbd01602f	-0.03158587
177	0xbcae8c80	-0.02130723
178	0xbd500861	-0.05078924
179	0xbad6d340	-0.0016389862
180	0x3c36dbf5	0.01116084
181	0x3d19f46b	0.03758661
182	0xbc8a104f	-0.01685348
183	0x3cddd115	0.027077237
184	0xbd82c248	-0.063847125
185	0x3d26c88d	0.040718604
186	0x3bc242ac	0.005928358
187	0x3b08caef	0.002087291
188	0x3ca6a4e0	0.02034229
189	0x3c7c2fb5	0.015392234
190	0xbc93e718	-0.01805453
191	0xbd1837b6	-0.037162505
192	0xbd13daef	-0.036097463
193	0xbb929454	-0.0044732485
194	0xbd4fff57	-0.05078062
195	0xbd52a667	-0.051428225
196	0xbc391fcd	-0.011299086
197	0xbcffa070	-0.031204432
198	0xbb8c36f1	-0.0042790105
199	0x3d6846e5	0.056708235
200	0xbd5634e9	-0.052296553
201	0x3cc29ef1	0.02375743
202	0x3d5cf1cc	0.053941533
203	0xbd717a92	-0.058954783
204	0x3d3fdbe0	0.04684055
205	0x3c70e2bf	0.014702498
206	0x3d82e894	0.06392017
207	0x3cfd077c	0.030887358
208	0x3ca7b545	0.020472178
209	0x3d2ee273	0.042696428
210	0x3b872d75	0.004125292
211	0x3c95415e	0.018219646
212	0x3c2145ce	0.009843303
213	0xbd644af7	-0.055735555
214	0x3d18dcc7	0.037319925
215	0x3d469a74	0.04848714
216	0xbcaabe09	-0.020842569
217	0x3b8b4ffe	0.004251479
218	0x3b9dddae	0.004817686
219	0x3c10dcd9	0.008841717
220	0x3c912bdf	0.017721115
221	0x3d5bbcda	0.0536469
222	0xbcdd9b1f	-0.027051507
223	0xbcadef2a	-0.021232206
224	0xbb96da05	-0.0046036267
225	0x3afaabd6	0.0019124697
226	0xbd4cd826	-0.050010823
227	0xbc7d0f04	-0.015445475
228	0x3d0c1a64	0.034204856
229	0xbd7f02d2	-0.06225855
230	0x3d30b052	0.043136902
231	0x3d84f07d	0.06491182
232	0x3d02cf3c	0.031935915
233	0xbc243b74	-0.01002394
234	0x3d6e221e	0.058138005
235	0xbd23d94a	-0.040002145
236	0xbd08d53e	-0.03340649
237	0xbd43ceb8	-0.047804564
238	0xbcdd3205	-0.02700139
239	0xbc90a3a0	-0.017656147
240	0x3ba881c9	0.0051424247
241	0xbc99289c	-0.018696122
242	0xbc032dfb	-0.008006568
243	0x3cfbd058	0.030738994
244	0xbc88c112	-0.016693626
245	0x3d758198	0.059938043
246	0x3bb8a4f8	0.0056349
247	0xbd15d078	-0.036575764
248	0xbd32fe67	-0.04369965
249	0xbd419164	-0.047257796
250	0x3d8439ae	0.06456314
251	0x3d0324ed	0.032017637
252	0x398037d5	0.0002445566
253	0xbd584b74	-0.052806333
254	0x3cf85e9f	0.030318556
255	0x3d3b2f97	0.045699682

linear2.bias f4 [3]
0	0x3d16edba	0.036847807
1	0x3c08a508	0.008340128
2	0xbd61d0c9	-0.055130754
